prediction/models_files/saint_model.pth (torch, 80630 bytes, 14 tensors)

fc1.weight f4 [128, 7]
-0.06546268 0.26910505 0.24268039 -0.066564664 0.12938958 0.21998876 0.021147367 -0.08843996
0.10889637 0.31290764 0.21363443 -0.21532986 0.20972109 0.62918603 -0.024083342 -0.718994
0.23585057 -0.23791061 -0.07290387 -0.025335427 0.030029064 0.13655297 -0.44491687 -0.13797282
-0.76652944 0.2660104 -0.39848334 -0.7945794 0.01562955 -0.30511573 -0.28531525 -0.5211225
0.047599353 -0.2112691 -0.36680573 -0.32806545 -0.14243285 0.109549165 0.24148673 -0.14403214
0.26419017 -0.2464895 0.18048283 0.34125614 0.0577361 0.2802485 -0.26343513 0.549965
0.66762036 0.0039608497 0.41010505 0.019822529 0.46876204 -0.04974502 0.13143976 0.8503358
0.047308996 0.032774325 0.27181515 -0.35089058 0.20138156 -0.069045275 0.06906095 0.3205229
0.057726353 -0.27068162 0.53938127 -0.23956387 0.18972038 0.32956648 0.37766537 0.25973693
-0.25473326 -0.08540203 -0.33128136 0.24530327 -0.23636708 -0.015982345 0.35997468 -0.25185302
0.021909194 -0.45730892 0.2574208 0.6878146 0.13895428 0.53844607 -0.27803636 0.27563745
-0.20556001 -0.34737927 0.55423254 -0.012095543 -0.5520639 -0.033573087 -0.5890031 0.01751908
0.19559492 -0.7635344 0.24543165 -0.13520172 -0.112039536 -0.056416098 -0.058243625 -0.08108912
-0.15262674 -0.014502109 -0.025682729 -0.3050404 -0.3939959 -0.08456382 0.30443662 -0.4538006
-0.019495571 -0.7545816 0.13847175 -0.007487206 0.17271306 -0.15236723 -0.9100646 0.0025848497
-0.79301935 0.18219775 -0.45200202 0.24553657 -0.44618168 -0.90220094 -0.013294292 -0.562323
0.09231476 -0.20731863 -0.3045206 0.3449655 -0.30744237 -0.3576396 0.5898871 -0.0067549124
0.50942105 0.28752625 0.14473099 0.17479163 0.28123003 0.12041411 -0.17457834 0.05815483
0.13025042 -0.09468419 0.0098193865 -0.027429037 -0.37882385 -0.07338312 0.3273841 0.13204777
-0.50732714 -0.84501714 -0.10897597 0.49202433 0.37839916 -0.24424382 -0.15392172 -0.24875776
0.31252265 -0.032943673 -0.6194653 -0.16013856 -0.5240584 0.020379484 -0.22447869 -0.9408018
0.056381844 0.47409588 0.0034478938 0.39103478 -0.23065199 0.5365629 0.09162539 -0.100128554
0.6113302 -0.23317571 0.40121245 0.13195795 -0.14832205 0.49860582 0.2867537 -0.47002915
0.17786272 0.42112812 -0.07537194 0.33425406 -0.05379644 0.0063924543 0.2933611 0.008242976
0.33145115 -0.06640731 0.17356731 0.7901034 -0.005095574 0.12633257 -0.0012920981 0.113568194
0.29996064 -0.47687256 -0.64766943 -0.060366414 0.12115948 0.36750275 -0.62844765 -0.20337985
-0.15190305 0.06122199 -0.25052184 0.045031827 -0.2528359 0.08671209 0.00016586174 -0.11100616
0.7379096 0.034477346 -0.055507123 0.12096184 0.750407 0.23645441 0.39700922 0.083781846
-0.0045815078 0.5235889 -0.01957494 -0.049190987 -0.08701236 -0.014632401 0.8646922 0.02219155
0.2056578 -0.4303233 -0.30018976 -0.05820167 -0.2412338 0.19171095 -0.23348337 -0.015392564
-0.27932116 -0.47751582 0.14546956 -0.12236983 -0.2432247 0.25174722 0.34623393 0.02701765
0.4193172 -0.32768983 -0.04929436 -0.372829 0.24222189 0.10360339 -0.40888757 -0.019324059
00000000: 4c11 86bd 23c8 893e 3581 783e 0e53 88bd
00000010: b47e 043e bc44 613e 3e3d ad3c 0220 b5bd
00000020: 0f05 df3d 6e35 a03e fcc2 5a3e 6e7f 5cbe
00000030: 20c1 563e 5612 213f 6e4a c5bc fe0f 38bf
00000040: d082 713e d79e 73be a04e 95bd 3e8c cfbc
00000050: 83ff f53c 8bd4 0b3e 25cc e3be bf48 0dbe
00000060: 463b 44bf 8432 883e 0206 ccbe 8e69 4bbf
00000070: 8b09 803c 2138 9cbe d714 92be 4968 05bf
00000080: 8af7 423d ed56 58be f6cd bbbe 32f8 a7be
00000090: ebd9 11be 505b e03d 4c48 773e 297d 13be
000000a0: ef43 873e be67 7cbe 7ed0 383e 20b9 ae3e
000000b0: b07c 6c3d bb7c 8f3e f8e0 86be 82ca 0c3f
000000c0: 2be9 2a3f 04ca 813b 4af9 d13e db62 a23c
000000d0: 9401 f03e 6fc1 4bbd 2598 063e 9baf 593f
000000e0: 14c7 413d 5f3e 063d 5b2b 8b3e eea7 b3be
000000f0: f836 4e3e 9c67 8dbd d46f 8d3d 941b a43e
00000100: 7872 6c3d c896 8abe e414 0a3f 3b50 75be
00000110: 0f46 423e f0bc a83e 5b5d c13e 3dfc 843e
00000120: 666c 82be 42e7 aebd b69d a9be c830 7b3e
00000130: 360a 72be 68ed 82bc 9a4e b83e e1f2 80be
00000140: e97a b33c 6524 eabe a9cc 833e 9e14 303f
00000150: 084a 0e3e 9ad7 093f c85a 8ebe 5a20 8d3e
00000160: 537e 52be b2db b1be 2fe2 0d3f 622c 46bc
00000170: 0f54 0dbf ef83 09bd e8c8 16bf 2c84 8f3c
00000180: 094a 483e fe76 43bf 6f52 7b3e 5272 0abe
00000190: fc74 e5bd 9114 67bd de90 6ebd 0d12 a6bd
000001a0: 2f4a 1cbe 419a 6dbc 9664 d2bc 412e 9cbe
000001b0: d5b9 c9be cc2f adbd 1edf 9b3e 8d58 e8be
000001c0: 2db5 9fbc 422c 41bf 8acb 0d3e 3c57 f5bb
000001d0: b1db 303e 2806 1cbe fef9 68bf 9566 293b
000001e0: 5103 4bbf 0c92 3a3e cf6c e7be f06d 7b3e
000001f0: ed71 e4be a4f6 66bf 4dd0 59bc 66f4 0fbf
00000200: 850f bd3d 564b 54be 20ea 9bbe 519f b03e
00000210: 1669 9dbe 8a1c b7be d702 173f 5058 ddbb
00000220: 6b69 023f a436 933e 5c34 143e 94fc 323e
00000230: 62fd 8f3e ac9b f63d aac4 32be c233 6e3d
00000240: 5e60 053e c9e9 c1bd 7ee1 203c dcb2 e0bc
00000250: 33f5 c1be e449 96bd e49e a73e 8837 073e
00000260: 31e0 01bf 0b53 58bf cb2e dfbd 9dea fb3e
00000270: 89bd c13e 0d1b 7abe a89d 1dbe 5bba 7ebe
00000280: f802 a03e f2ef 06bd 4795 1ebf 5dfb 23be
00000290: b128 06bf e0f2 a63c bedd 65be 63d8 70bf
000002a0: a6f0 663d b2bc f23e 0ff6 613b b635 c83e
000002b0: 0930 6cbe 305c 093f 18a6 bb3d 3310 cdbd
000002c0: 2380 1c3f 9dc5 6ebe b86b cd3e fc1f 073e
000002d0: bce1 17be 4349 ff3e 62d1 923e a9a7 f0be
000002e0: a521 363e 1b9e d73e 9b5c 9abd 5923 ab3e
000002f0: a859 5cbd cb77 d13b 6d33 963e 8c0d 073c
00000300: f7b3 a93e 8e00 88bd a1bb 313e 3744 4a3f
00000310: c6f8 a6bb 535d 013e 9e5b a9ba 7196 e83d
00000320: 7194 993e a428 f4be aacd 25bf c642 77bd
00000330: 7622 f83d 5229 bc3e f2e1 20bf cf42 50be
00000340: 798c 1bbe e9c3 7a3d 6644 80be 4b73 383d
00000350: b573 81be 1c96 b13d 2ceb 2d39 3357 e3bd
00000360: a5e7 3c3f 1e38 0d3d 705b 63bd d7ba f73d
00000370: ac1a 403f 1b21 723e cb44 cb3e d195 ab3d
00000380: 7920 96bb ec09 063f a05b a0bc 7d7c 49bd
00000390: 8933 b2bd bdbc 6fbc 785c 5d3f 0ecb b53c
000003a0: f597 523e 5653 dcbe 79b2 99be e064 6ebd
000003b0: fe05 77be e04f 443e 4416 6fbe 1831 7cbc
000003c0: 2f03 8fbe f47c f4be f9f5 143e 099d fabd
000003d0: e50f 79be 03e5 803e 9345 b13e 1e54 dd3c
000003e0: beb0 d63e f6c6 a7be e2e8 49bd 71e3 bebe
000003f0: 0409 783e 042e d43d b659 d1be 7d4d 9ebc

fc1.bias f4 [128]
-0.36624214 -0.014919342 -0.25810292 0.36363214 -0.0028052698 -0.14465849 -0.09273569 0.2286802
0.18060315 -0.15802269 0.14049155 -0.14299518 0.064100966 0.018320318 0.19967997 0.008909651
0.14404862 0.31374687 -0.058908354 -0.09737778 0.35393858 0.04398147 0.2575029 -0.23483369
0.11045852 0.20916797 -0.034160666 0.06099318 -0.017836878 0.22099839 0.10790881 0.08729452
0.35955042 0.19676971 0.14226796 -0.30753392 -0.15965715 0.37627017 0.07756647 -0.26813215
-0.038765576 -0.28516346 0.027944764 0.33553907 0.13547151 0.06309306 -0.258221 -0.049321827
-0.10629795 -0.22379884 -0.24350493 0.10073768 -0.023359615 -0.14014834 0.365677 0.057626147
-0.08295379 -0.15438029 0.048141 0.13962652 -0.04358551 0.19350863 0.24787116 0.10022254
-0.21192878 0.15289934 -0.052593168 0.27301425 -0.123014115 -0.19546288 -0.34070057 0.046702154
-0.2576976 0.05534316 -0.26187828 0.34736684 0.21215752 -0.27245066 0.075295046 0.12564082
0.21610084 0.010008901 0.052742764 -0.13564211 -0.09666266 -0.07618441 -0.35350722 0.13108113
-0.2809222 -0.066652745 -0.095223576 0.29751718 -0.2837198 0.24493967 -0.15737557 -0.11792852
-0.16672683 0.11912894 0.3576343 0.13548806 -0.047511302 -0.12733948 -0.12802517 -0.3123818
0.1876026 -0.36080796 -0.13349466 0.103097714 0.10917503 0.08323621 -0.110552244 0.35587677
-0.015697327 0.3549254 -0.32185343 -0.09071283 0.04656851 0.29272944 0.38235062 0.07567237
0.05850436 -0.030182645 -0.30131978 -0.021389844 0.11819983 0.20366576 0.04833038 0.27475497
00000000: 1784 bbbe 4170 74bc 1126 84be fe2d ba3e
00000010: 9ed8 37bb 5b21 14be 36ec bdbd 242b 6a3e
00000020: 08f0 383e b3d0 21be 04dd 0f3e 546d 12be
00000030: 5e47 833d 7e14 963c e878 4c3e c9f9 113c
00000040: 7b81 133e 6ea3 a03e e349 71bd 006e c7bd
00000050: 7037 b53e ea25 343d 6cd7 833e 3e78 70be
00000060: 1438 e23d 2130 563e 0eec 0bbd fcd3 793d
00000070: a51e 92bc 674d 623e 4bff dc3d 78c7 b23d
00000080: fe16 b83e 007e 493e b1ae 113e 1675 9dbe
00000090: 2a7d 23be 7ca6 c03e 2bdb 9e3d 9e48 89be
000000a0: a7c8 1ebd f200 92be 6bec e43c c7cb ab3e
000000b0: 0bb9 0a3e ef36 813d 8b35 84be af05 4abd
000000c0: bdb2 d9bd 862b 65be 5b59 79be 8f4f ce3d
000000d0: aa5c bfbc 0c83 0fbe 043a bb3e 6509 6c3d
000000e0: ade3 a9bd de15 1ebe 7f2f 453d 41fa 0e3e
000000f0: b886 32bd 2027 463e f0d1 7d3e 7a41 cd3d
00000100: dc03 59be a591 1c3e ef6b 57bd 86c8 8b3e
00000110: d3ee fbbd 6c27 48be 4e70 aebe c24a 3f3d
00000120: f1f0 83be 82af 623d e914 86be 11da b13e
00000130: d23f 593e a77e 8bbe 4a34 9a3d fda7 003e
00000140: 8a49 5d3e 60fc 233c cc08 583d c4e5 0abe
00000150: 13f7 c5bd 9206 9cbd e6fe b4be 223a 063e
00000160: 09d5 8fbe 3c81 88bd 9404 c3bd 2c54 983e
00000170: b943 91be 77d1 7a3e 1027 21be 8284 f1bd
00000180: 70ba 2abe e0f9 f33d d81b b73e 62bd 0a3e
00000190: 369b 42bd 4865 02be 0819 03be 82f0 9fbe
000001a0: e51a 403e d2bb b8be d3b2 08be e524 d33d
000001b0: 2897 df3d bf77 aa3d 3769 e2bd 7b35 b63e
000001c0: ae97 80bc c8b8 b53e f9c9 a4be a6c7 b9bd
000001d0: 9fbe 3e3d a2e0 953e 76c3 c33e 1efa 9a3d
000001e0: 45a2 6f3d 9841 f7bc 9646 9abe c139 afbc
000001f0: c112 f23d c28d 503e 14f6 453d afac 8c3e

bn1.weight f4 [128]
0.85134155 0.9948846 0.97983706 0.9960707 1.0071898 0.83450866 1.019816 1.2201228
0.8020685 0.98243046 0.93312836 0.9029514 0.9198679 1.4814171 0.8728973 0.8424325
0.98377967 1.0366468 1.0946416 0.8721719 0.85824716 1.0576439 0.91181636 0.83550304
1.1403923 0.9171779 0.899154 1.2057147 1.1513376 1.0595549 0.8831322 0.9645021
1.1569251 0.94759 0.82774705 0.92924124 0.9155397 0.8096135 0.7892725 0.9335934
0.9168632 0.9378654 0.9923071 1.1550092 0.82702464 0.7786047 1.0001873 0.88291353
1.053232 0.80907613 0.8455974 1.1595033 0.8678139 0.98232126 1.035351 1.2243555
1.0408285 0.8982901 0.9017099 0.9808006 1.0636678 0.8607832 0.79217273 0.956793
0.9972246 0.9372687 0.93403685 0.82065916 0.97820264 0.9035937 0.86174846 1.2408867
1.017844 0.8586256 1.1951793 0.9934137 0.90543693 1.1013442 1.0235381 1.1548337
1.3345599 1.1359527 0.9564507 0.94273126 0.7544928 0.8836454 0.93600476 1.0178165
1.1260442 0.9551541 0.9116058 0.9520869 1.0400012 1.1634327 0.9250452 0.76949215
1.0604944 1.3973091 0.98662096 0.80785924 1.1534634 1.1336143 1.0313952 0.9024171
1.4699247 1.0390595 1.0135614 1.1637743 0.732138 0.9544229 0.9043677 0.95195186
1.2496228 1.1770442 0.8236995 1.0629778 1.2523998 1.3808198 1.1714178 0.82271695
0.7442069 1.2109388 0.9862 1.1184617 1.1712753 0.9090241 0.8956407 0.8565911
00000000: 85f1 593f c2b0 7e3f 9ad6 7a3f 7dfe 7e3f
00000010: 98eb 803f 5ca2 553f 5589 823f fc2c 9c3f
00000020: 5c54 4d3f 9080 7b3f 80e1 6e3f d327 673f
00000030: 767c 6b3f 139f bd3f 3376 5f3f a8a9 573f
00000040: fcd8 7b3f d8b0 843f 371d 8c3f a846 5f3f
00000050: 16b6 5b3f e060 873f cc6c 693f 87e3 553f
00000060: 60f8 913f 2ccc 6a3f f52e 663f dc54 9a3f
00000070: 085f 933f 7f9f 873f f414 623f 9ce9 763f
00000080: 1f16 943f 4295 723f 3be7 533f c1e2 6d3f
00000090: cf60 6a3f d542 4f3f c30d 4a3f faff 6e3f
000000a0: 8cb7 6a3f f217 703f d707 7e3f 57d7 933f
000000b0: e3b7 533f a352 473f 2306 803f 9f06 623f
000000c0: 4ed0 863f 9d1f 4f3f 1279 583f 9b6a 943f
000000d0: 0d29 5e3f 6879 7b3f 6286 843f aeb7 9c3f
000000e0: de39 853f 57f6 653f 76d6 663f c015 7b3f
000000f0: 4426 883f 4a5c 5c3f d5cb 4a3f 63f0 743f
00000100: 1d4a 7f3f d7f0 6f3f 0a1d 6f3f b816 523f
00000110: 7d6b 7a3f eb51 673f 8c9b 5c3f 60d5 9e3f
00000120: b648 823f e3ce 5b3f a3fb 983f 5c50 7e3f
00000130: b7ca 673f d9f8 8c3f 4c03 833f 97d1 933f
00000140: dcd2 aa3f e666 913f f4d9 743f d656 713f
00000150: 7126 413f 9636 623f 029e 6f3f d047 823f
00000160: 3722 903f fb84 743f ff5e 693f f8bb 733f
00000170: c21e 853f 5deb 943f c3cf 6c3f 70fd 443f
00000180: 48be 873f 06db b23f 3193 7c3f ddcf 4e3f
00000190: b0a4 933f 461a 913f c204 843f cf04 673f
000001a0: 7e26 bc3f e7ff 843f 61bc 813f 8ef6 943f
000001b0: 656d 3b3f 0f55 743f a484 673f 1eb3 733f
000001c0: a4f3 9f3f 62a9 963f f8dd 523f a80f 883f
000001d0: a34e a03f b4be b03f 05f1 953f 949d 523f
000001e0: 5884 3e3f 0b00 9b3f 9a77 7c3f c129 8f3f
000001f0: 59ec 953f ceb5 683f b548 653f 8e49 5b3f

bn1.bias f4 [128]
-0.17462245 -0.06801916 -0.14633495 -0.23027521 -0.036631178 -0.13325512 -0.14097337 -0.17948772
-0.2465233 -0.12160643 -0.13549039 -0.12073547 -0.124821745 -0.23476535 -0.07681536 -0.019883301
-0.17809287 -0.15240997 -0.15867838 -0.25625578 -0.24417043 -0.10089819 -0.1296005 -0.06541398
-0.1459799 -0.15386733 -0.07899745 -0.07944649 -0.27216506 -0.05979047 -0.115193136 -0.1987088
-0.25317168 -0.15344794 -0.18314445 -0.06555523 -0.26068062 -0.17443335 -0.16461399 -0.1770451
-0.20179458 -0.1745583 -0.20146139 -0.3888159 -0.20992447 -0.25448507 -0.20624529 -0.21260081
-0.05119479 -0.059266694 -0.09765971 -0.5097099 -0.29431927 -0.07616891 -0.18136297 -0.26931953
-0.20568676 -0.18025519 -0.1952334 -0.30269665 -0.18299274 -0.2501535 -0.29646808 -0.33085203
-0.12637635 -0.049327772 -0.22731861 -0.25779405 -0.043426096 -0.075840734 -0.24341695 -0.19623856
-0.14522304 -0.02826531 -0.26746434 -0.07092201 -0.11854968 -0.1113179 -0.10016663 -0.19897515
-0.20706688 -0.19204322 -0.27555603 -0.1413227 -0.17611149 -0.26207897 -0.16650392 -0.07992442
-0.22672746 -0.25996125 -0.16335236 -0.13509329 -0.07758062 -0.24952193 -0.23978099 -0.2012883
-0.5259591 -0.1601831 -0.1356807 -0.1856682 0.042912208 -0.124488845 0.07000184 -0.27135053
-0.16572997 -0.09421763 -0.07251094 0.15367492 -0.24201126 -0.11490554 -0.32039908 -0.11346304
-0.016448293 -0.06527444 -0.23555677 -0.34142083 -0.122137554 -0.28519034 0.076752596 -0.2369132
-0.18901391 -0.16269267 -0.15723963 -0.19540365 -0.33164477 -0.14259239 -0.28083006 -0.1968093
00000000: 3ad0 32be a14d 8bbd d4d8 15be 44cd 6bbe
00000010: 930a 16bd 0874 08be 535b 10be a1cb 37be
00000020: 9b70 7cbe cb0c f9bd febd 0abe 2844 f7bd
00000030: 8ba2 ffbd 5466 70be 5f51 9dbd 4ee2 a2bc
00000040: fa5d 36be 5c11 1cbe 967c 22be f533 83be
00000050: d007 7abe b6a3 cebd feb5 04be c4f7 85bd
00000060: c17b 15be 668f 1dbe 6ac9 a1bd d7b4 a2bd
00000070: 3859 8bbe dae6 74bd 61ea ebbd 527a 4bbe
00000080: b89f 81be 7521 1dbe 388a 3bbe d241 86bd
00000090: ee77 85be a89e 32be 9290 28be 504b 35be
000000a0: 3da3 4ebe 69bf 32be e54b 4ebe e112 c7be
000000b0: 71f6 56be de4b 82be f731 53be 07b4 59be
000000c0: a1b1 51bd a2c1 72bd d001 c8bd 597c 02bf
000000d0: 04b1 96be 72fe 9bbd 37b7 39be 40e4 89be
000000e0: 8d9f 52be d194 38be 44eb 47be 0efb 9abe
000000f0: 7362 3bbe 1f14 80be aaca 97be 7065 a9be
00000100: cd68 01be eb0b 4abd 36c6 68be 95fd 83be
00000110: 90df 31bd 6352 9bbd 4b42 79be c3f2 48be
00000120: 59b5 14be a78c e7bc 16f1 88be 8f3f 91bd
00000130: 2dca f2bd a4fa e3bd 2a24 cdbd 24c0 4bbe
00000140: 5709 54be faa6 44be ae15 8dbe e6b6 10be
00000150: 9256 34be 372f 86be 0180 2abe 6aaf a3bd
00000160: 3e2b 68be a419 85be d745 27be e555 0abe
00000170: 97e2 9ebd ad82 7fbe 2689 75be 851e 4ebe
00000180: 41a5 06bf 0a07 24be e2ef 0abe ce1f 3ebe
00000190: b6c4 2f3d 02f4 febd 205d 8f3d 75ee 8abe
000001a0: 1eb5 29be 2cf5 c0bd 9e80 94bd f55c 1d3e
000001b0: cdd1 77be 9953 ebbd 590b a4be 4f5f e8bd
000001c0: 92be 86bc 9bae 85bd cb35 71be b6ce aebe
000001d0: 4123 fabd 7804 92be 7730 9d3d 6099 72be
000001e0: dd8c 41be e898 26be 6d03 21be e517 48be
000001f0: 58cd a9be bd03 12be f5c8 8fbe 6188 49be

bn1.running_mean f4 [128]
4.043358 3.6014624 3.963721 3.3976042 -7.4933734 -14.176903 11.186688 1.5350796
10.675357 8.445196 11.490051 -9.105923 -1.8059886 -1.4645542 9.097279 -8.948371
2.836754 4.909374 0.74640644 -16.576185 10.555699 -4.222725 3.8687313 -7.3418436
3.8067455 -10.44839 19.973635 1.1064073 0.045325447 5.5429654 -19.708443 7.775285
-0.49305555 -11.234522 -19.274918 11.795792 2.5678532 -27.231403 -13.901896 -2.2984505
8.769158 8.5324745 -5.367999 -5.079447 3.849664 -15.219498 2.7732325 8.564081
1.6847101 -8.989752 -15.346446 -4.768987 -8.704847 13.565746 -3.9569082 1.3104857
5.99702 4.8308825 -4.0377645 2.686596 -0.79587096 -4.633949 -19.519196 -11.687009
20.26529 23.112225 -7.499762 -16.839085 4.2100544 -9.073949 -10.898757 1.9190012
-4.5071955 -7.8613453 1.0721444 2.8029482 -27.75858 2.681635 1.4599303 7.5826325
1.4882315 2.8097255 2.756487 2.5485039 -23.48402 11.712517 -18.099808 4.089801
0.61314654 1.8371469 -8.174908 5.3777804 -8.81786 7.952337 1.5233693 17.223528
1.4011998 2.6094637 -24.394604 15.50653 -0.28674126 5.8697968 -5.8724866 9.259403
3.7001655 6.283886 -6.5682454 0.48459184 -4.152767 -13.090547 -9.627369 24.806767
1.1387978 3.091983 -3.4435186 -1.4819102 0.88547385 0.5415926 0.29568478 -7.1961555
-14.390231 -1.2581517 8.049974 -4.069235 1.2407069 15.935095 -11.735608 -13.733275
00000000: 3063 8140 5c7e 6640 9bad 7d40 5972 5940
00000010: b7c9 efc0 98d4 62c1 adfc 3241 7d7d c43f
00000020: 43ce 2a41 861f 0741 40d7 3741 dcb1 11c1
00000030: a22a e7bf 8376 bbbf 748e 1141 872c 0fc1
00000040: 618d 3540 9819 9d40 7e14 3f3f 079c 84c1
00000050: 25e4 2841 9020 87c0 4b99 7740 62f0 eac0
00000060: b8a1 7340 9b2c 27c1 01ca 9f41 c19e 8d3f
00000070: 2da7 393d f95f b140 e4aa 9dc1 22cf f840
00000080: c771 fcbe 9ac0 33c1 0833 9ac1 90bb 3c41
00000090: b557 2440 ead9 d9c1 2b6e 5ec1 d019 13c0
000000a0: 794e 0c41 0485 0841 a6c6 abc0 d48a a2c0
000000b0: e560 7640 1083 73c1 a47c 3140 7a06 0941
000000c0: 95a4 d73f 06d6 0fc1 0b8b 75c1 8b9b 98c0
000000d0: 0e47 0bc1 4c0d 5941 fc3d 7dc0 ffbd a73f
000000e0: 96e7 bf40 9796 9a40 5e35 81c0 30f1 2b40
000000f0: 33be 4bbf 4f49 94c0 5027 9cc1 fdfd 3ac1
00000100: 501f a241 d6e5 b841 0dfe efc0 72b6 86c1
00000110: c4b8 8640 e52e 11c1 4f61 2ec1 d5a1 f53f
00000120: f23a 90c0 2490 fbc0 073c 893f 8163 3340
00000130: 9211 dec1 e89f 2b40 ffde ba3f eda4 f240
00000140: 5f7e be3f 8bd2 3340 486a 3040 b01a 2340
00000150: 46df bbc1 7866 3b41 68cc 90c1 a6df 8240
00000160: 2cf7 1c3f a127 eb3f 6ccc 02c1 c716 ac40
00000170: f415 0dc1 8b79 fe40 c4fd c23f c9c9 8941
00000180: 845a b33f 7401 2740 2628 c3c1 bf1a 7841
00000190: c0cf 92be 60d5 bb40 69eb bbc0 8426 1441
000001a0: 83cf 6c40 9815 c940 112f d2c0 6c1c f83e
000001b0: 78e3 84c0 e172 51c1 b409 1ac1 4274 c641
000001c0: 20c4 913f 0de3 4540 9c62 5cc0 3caf bdbf
000001d0: 6aae 623f d0a5 0a3f ff63 973e e846 e6c0
000001e0: 633e 66c1 1d0b a1bf b2cc 0041 2c37 82c0
000001f0: 7ccf 9e3f 26f6 7e41 0dc5 3bc1 7fbb 5bc1

bn1.running_var f4 [128]
4.513165 7.3496575 2.9538758 7.5961556 4.182561 32.857487 11.09034 0.2710716
4.848739 34.386665 46.084415 5.317206 10.171654 0.3526229 18.526108 4.939281
1.6142803 2.9273508 1.3238565 40.20778 24.968498 1.318501 10.588033 2.0065334
2.050254 6.0414486 27.254496 0.24880125 1.1535589 7.9133506 22.267435 2.310547
0.26769865 9.398251 20.809978 20.12931 25.530622 39.53574 28.1759 14.379222
3.4471207 3.5471144 6.4488297 4.358784 8.832981 23.566998 1.7671807 16.703276
2.8180642 4.0280647 31.991056 3.0546005 26.190605 10.935039 1.9615781 0.6451316
4.0803213 14.118995 1.5089703 0.5212895 0.23546582 7.1311235 17.670334 5.520369
16.234648 33.71005 6.1318583 29.123068 2.8277125 6.614893 29.740055 0.31506646
1.2466462 3.4135842 0.25901952 10.7301235 51.92347 0.5219312 0.5483978 5.5322857
0.21588744 1.5135279 3.6980944 2.9811423 36.448093 8.580641 17.161253 3.9488764
0.26376662 2.3356066 13.358834 15.924609 6.064895 6.722861 0.55847496 15.690583
1.9827583 1.5482484 26.735744 31.166655 0.2710119 8.946522 4.397723 8.436547
2.2605371 2.5802822 4.2789464 0.39121574 1.8054148 8.9589405 29.223532 33.095592
1.5131359 1.4449629 22.088785 0.83715564 0.24852452 0.64950424 0.27082574 38.96093
14.726956 0.38471645 4.381146 3.0721283 2.0734544 17.238052 8.526126 13.214183
00000000: d96b 9040 6530 eb40 4d0c 3d40 b513 f340
00000010: 8ad7 8540 116e 0342 0872 3141 e6c9 8a3e
00000020: df28 9b40 f28b 0942 7156 3842 8d26 aa40
00000030: 18bf 2241 fd8a b43e 7835 9441 970e 9e40
00000040: bda0 ce3f b759 3b40 2174 a93f c4d4 2042
00000050: 7cbf c741 a4c4 a83f 9568 2941 0b6b 0040
00000060: 5d37 0340 8c53 c140 3509 da41 c1c5 7e3e
00000070: d1a7 933f 2b3a fd40 b523 b241 01e0 1340
00000080: cc0f 893e 3c5f 1641 d67a a641 d408 a141
00000090: b73e cc41 9924 1e42 3e68 e141 4b11 6641
000000a0: a09d 5c40 ec03 6340 d05c ce40 297b 8b40
000000b0: e453 0d41 3689 bc41 fa32 e23f 4fa0 8541
000000c0: 2a5b 3440 e8e5 8040 afed ff41 937e 4340
000000d0: 5c86 d141 ebf5 2e41 fe14 fb3f 5827 253f
000000e0: fe91 8240 67e7 6141 f025 c13f 3b73 053f
000000f0: f41d 713e 2a32 e440 d85c 8d41 dda6 b040
00000100: 8fe0 8141 17d7 0642 2f38 c440 0bfc e841
00000110: 3ef9 3440 34ad d340 a2eb ed41 6450 a13e
00000120: 1a92 9f3f 2a78 5a40 359e 843e 96ae 2b41
00000130: a2b1 4f42 489d 053f cc63 0c3f 7c08 b140
00000140: 9911 5d3e 48bb c13f 94ad 6c40 09cb 3e40
00000150: d9ca 1142 4e4a 0941 3f4a 8941 64ba 7c40
00000160: 6b0c 873e 947a 1540 c9bd 5541 33cb 7e41
00000170: 9f13 c240 ad21 d740 37f8 0e3f a10c 7b41
00000180: 06cb fd3f 012d c63f cee2 d541 4f55 f941
00000190: 12c2 8a3e f424 0f41 26ba 8c40 19fc 0641
000001a0: a4ac 1040 5823 2540 21ed 8840 6e4d c83e
000001b0: d517 e73f d257 0f41 cbc9 e941 e361 0442
000001c0: 70ae c13f 8bf4 b83f d5b5 b041 d54f 563f
000001d0: 367d 7e3e e945 263f aca9 8a3e fed7 1b42
000001e0: 9da1 6b41 8ef9 c43e 5932 8c40 c09d 4440
000001f0: 7ab3 0440 88e7 8941 036b 0841 4b6d 5341

fc2.weight f4 [128, 128]
0.0024624232 -0.039009552 -0.088137195 -0.056836654 -0.075759515 -0.14042807 -0.06295229 0.06610932
0.01788052 -0.004700762 0.013278152 0.0013767104 0.030377889 -0.02477794 0.034362093 0.056136195
-0.036011092 -0.034900904 -0.047731303 -0.08810892 0.06989353 0.015473244 0.00084022206 -0.03429174
0.1005597 -0.11796486 -0.039836023 -0.017823286 0.054353986 0.0012868886 -0.14033274 0.043188892
0.07789866 -0.06214615 -0.09568385 -0.009109387 -0.019071477 0.008440001 -0.0055606025 0.007370985
0.030086331 -0.045703005 0.045719873 0.051848233 0.0042363782 -0.07436504 -0.04983484 0.043744713
0.15771168 -0.09229853 -0.08698095 0.08465872 -0.1340307 0.026970433 0.030252406 -0.011441733
0.04111969 0.054553866 0.031979114 -0.002989255 0.015472664 -0.086634405 -0.12572443 -0.114204094
0.028816106 0.13494655 -0.014980148 0.0066801943 0.03838176 0.065155976 0.0062175156 -0.06263536
-0.0904606 0.0014344561 0.072707355 -0.015680103 -0.020954814 0.1269592 0.030401053 0.016372515
-0.009348433 -0.014330099 -0.05229086 0.038646653 -0.011110821 0.06903887 -0.10119173 -0.057256084
0.14432825 0.12795751 -0.12040444 0.037422102 -0.080673695 0.03286942 0.05954743 -0.016735964
0.0743579 0.02694897 -0.049226265 -0.03732888 0.1323567 0.004368978 0.08302843 0.095713325
-0.051452246 -0.080370575 0.009294254 0.08939335 -0.062003203 -0.063461006 -0.16702366 0.050375324
0.10959272 -0.048556764 -0.08248462 -0.08251676 -0.06647683 -0.085526556 -0.04057491 -0.033434775
-0.10424443 0.069502585 -0.064717695 -0.057082184 -0.032225903 -0.024081146 -0.15141496 0.003465748
-0.019739844 -0.018698605 -0.0055059055 -0.064797014 -0.04003108 -0.06805659 0.046464253 0.12629877
-0.0065464186 0.03687239 0.014847366 0.04506955 0.100371554 -0.25095427 0.0070417 -0.11575542
-0.05361449 -0.09404149 -0.10317814 -0.013935095 -0.010004819 -0.036874272 0.037155792 -0.031334203
0.05515546 -0.04585643 -0.026713947 0.050143953 -0.1021431 0.044867553 0.094813965 -0.0062435674
0.07558937 -0.06824059 -0.064523995 0.09004252 0.07486588 0.009625811 -0.07063219 -0.0651697
0.018528769 0.044428963 0.061151505 0.09110027 -0.009501658 0.05688115 -0.005698537 0.045059346
0.07910914 -0.087840475 0.007616745 0.09798826 -0.073796235 0.03558082 -0.17106912 -0.10870761
-0.008551643 -0.020978918 0.051633652 0.112317234 0.048257414 -0.04307842 0.078823514 0.015282033
0.0006563708 0.010466198 -0.10027132 0.009469359 0.067011535 -0.029043691 0.04372876 0.07606623
-0.054093566 -0.1263182 0.030336076 0.039316613 0.04122424 0.07841628 0.11100731 -0.0050078714
0.1027613 -0.09385238 -0.057277597 0.09009287 0.050646536 -0.03549267 0.045917805 0.11786528
0.081773214 0.092632964 0.013495286 -0.009891794 -0.032513235 0.041754156 0.022908907 -0.037678517
-0.059982628 0.0051959385 -0.011190109 -0.03826775 -0.28517997 0.03616062 -0.032395612 -0.018989168
-0.013704287 0.027980477 -0.077411145 -0.17919344 0.023559004 -0.015131052 -0.007078496 -0.039305385
0.075022765 0.015377905 -8.278621e-05 0.0031377831 0.23123102 -0.11787566 -0.17093873 -0.0015182475
-0.05947853 -0.004609454 -0.026655838 -0.11292452 -0.021345919 -0.047862582 -0.012023861 -0.012101924
00000000: 9b60 213b 7bc8 1fbd 4681 b4bd 8dcd 68bd
00000010: ce27 9bbd 60cc 0fbe 21ed 80bd 5364 873d
00000020: 2b7a 923c da08 9abb 9b8c 593c bc72 b43a
00000030: 0ddb f83c 1bfb cabc 44bf 0c3d 11ef 653d
00000040: 5e80 13bd 40f4 0ebd e681 43bd 7372 b4bd
00000050: 5724 8f3d 7d83 7d3c 5942 5c3a 7f75 0cbd
00000060: 3ef2 cd3d 8f97 f1bd 192b 23bd 2402 92bc
00000070: 49a2 5e3d d1ac a83a 63b3 0fbe d6e6 303d
00000080: 5589 9f3d f68c 7ebd e5f5 c3bd 8a3f 15bc
00000090: c93b 9cbc ee47 0a3c b735 b6bb 4e88 f13b
000000a0: 9c77 f63c 1333 3bbd c344 3b3d d05e 543d
000000b0: 51d1 8a3b b34c 98bd 9e1f 4cbd a82d 333d
000000c0: 2c7f 213e 0307 bdbd 1123 b2bd 8d61 ad3d
000000d0: 583f 09be 19f1 dc3c e5d3 f73c 1b76 3bbc
000000e0: 1f6d 283d e073 5f3d 88fc 023d 60e7 43bb
000000f0: 0e81 7d3c 616d b1bd e8bd 00be d6e3 e9bd
00000100: c10f ec3c 6e2f 0a3e 4b6f 75bc 88e5 da3b
00000110: 3136 1d3d 7f70 853d 4dbc cb3b f846 80bd
00000120: 6843 b9bd 5c04 bc3a 98e7 943d 8f73 80bc
00000130: 6ea9 abbc 9801 023e a10b f93c a71f 863c
00000140: 2c2a 19bc cbc8 6abc f12e 56bd f44b 1e3d
00000150: 290a 36bc 4064 8d3d 9c3d cfbd 5b85 6abd
00000160: c9ca 133e 4b07 033e 9a96 f6bd eb47 193d
00000170: 4038 a5bd 16a2 063d 02e8 733d dc19 89bc
00000180: f448 983d 16c4 dc3c 7ba1 49bd 2be6 18bd
00000190: 8488 073e a529 8f3b cf0a aa3d 5905 c43d
000001a0: 97bf 52bd 5499 a4bd ed46 183c dc13 b73d
000001b0: 12f7 7dbd d8f7 81bd 4008 2bbe 5b56 4e3d
000001c0: 2672 e03d 75e3 46bd b2ed a8bd 8cfe a8bd
000001d0: 0125 88bd 8c28 afbd e031 26bd e7f2 08bd
000001e0: 1b7e d5bd 5f57 8e3d b68a 84bd 02cf 69bd
000001f0: 4fff 03bd d345 c5bc 860c 1bbe 9a21 633b
00000200: 74b5 a1bc d12d 99bc e26a b4bb 4cb4 84bd
00000210: a1f7 23bd 4161 8bbd 4d51 3e3d 7754 013e
00000220: 5783 d6bb 8107 173d 5e42 733c d99a 383d
00000230: 9a8f cd3d 147d 80be 10be e63b 2d11 edbd
00000240: de9a 5bbd d398 c0bd 104f d3bd 0650 64bc
00000250: 41eb 23bc 7a09 17bd ac30 183d 4b58 00bd
00000260: b1ea 613d f4d3 3bbd 35d7 dabc bf63 4d3d
00000270: 6730 d1bd 0ac7 373d d32d c23d d796 ccbb
00000280: 9ace 9a3d b9c1 8bbd 2825 84bd 3668 b83d
00000290: 4853 993d 94b5 1d3c 9ca7 90bd b177 85bd
000002a0: a5c9 973c 25fb 353d 007a 7a3d c792 ba3d
000002b0: d8ac 1bbc 35fc 683d cbba babb 2690 383d
000002c0: f903 a23d b5e5 b3bd e395 f93b 12ae c83d
000002d0: 7b22 97bd 32bd 113d be2c 2fbe 18a2 debd
000002e0: 311c 0cbc fbdb abbc cf7d 533d 9406 e63d
000002f0: 91a9 453d ff72 30bd 396e a13d 7e61 7a3c
00000300: 4c10 2c3a 6b7a 2b3c 0d5b cdbd 5f25 1b3c
00000310: 583d 893d 09ed edbc ee1c 333d 9dc8 9b3d
00000320: 3791 5dbd 8f59 01be 5d83 f83c 750a 213d
00000330: c0da 283d b798 a03d cd57 e33d 1219 a4bb
00000340: 8474 d23d ad35 c0bd ea9b 6abd 9c82 b83d
00000350: be72 4f3d c360 11bd 4f14 3c3d 5a63 f13d
00000360: b778 a73d 5ab6 bd3d 551b 5d3c 3111 22bc
00000370: 992c 05bd 6806 2b3d 76ab bb3c ca54 1abd
00000380: 58b0 75bd b142 aa3b b856 37bc a5be 1cbd
00000390: 1c03 92be 291d 143d 43b1 04bd 2c8f 9bbc
000003a0: f287 60bc 5037 e53c bc89 9ebd 7c7e 37be
000003b0: d0fe c03c 3be8 77bc baf2 e7bb affe 20bd
000003c0: 89a5 993d 9cf3 7b3c 829d adb8 44a3 4d3b
000003d0: d3c7 6c3e cb68 f1bd 900a 2fbe efff c6ba
000003e0: c29f 73bd e70a 97bb 585d dabc f944 e7bd
000003f0: a3dd aebc 8e0b 44bd baff 44bc 2647 46bc

fc2.bias f4 [128]
-0.023119166 -0.07101684 0.08339572 -0.003993547 -0.07451681 -0.016301455 0.03373627 -0.04992
0.07205459 -0.03785483 0.057268117 0.027723955 0.011387824 0.073040135 0.07574143 0.023260571
-0.040937293 -0.054141313 -0.0245493 -0.052458353 0.053263113 -0.052448936 -0.0023280834 -0.06560072
0.0470491 -0.047685403 0.060224656 0.05732582 -0.06525278 0.044331808 0.06330312 0.011503137
0.052679665 -0.022113359 -0.024904551 -0.05282355 0.060205508 0.06901163 -0.073278375 -0.014680174
0.0016481212 0.02853488 -0.032519165 -0.082952365 -0.018072577 0.012411801 -0.07808113 -0.07729002
0.04725684 -0.03355395 -0.030899318 0.082535386 -0.037260275 0.019371958 -0.009413509 0.020306313
-0.006896014 -0.07652127 0.02554725 0.027730614 0.057515763 0.007001625 0.08220283 0.0885708
-0.08893696 -0.021885408 -0.07091791 -0.043828644 0.013964646 0.08293923 0.0524071 0.07395707
0.062407076 -0.013089438 -0.0026208858 0.023025427 -0.03232205 0.032921776 0.008869301 0.01815698
0.08694311 -0.025708636 -0.036520336 0.082821645 0.05441823 -0.04540852 -0.05486437 0.08068711
-0.06670134 -0.03192439 0.07360082 -0.05984059 0.02038065 0.081707574 0.024659457 -0.07802939
0.056289796 0.06662999 -0.03359257 0.03308982 0.05550719 -0.06119118 -0.05513535 -0.03354579
0.06701995 0.062556036 -0.012767577 0.054199092 -0.02614837 0.029121267 -0.012074529 -0.04728342
0.065139055 0.038146723 0.03828751 -0.055027522 -0.010365851 0.03665353 -0.045994706 0.06624928
0.05641278 0.02576422 0.042302404 -0.07985013 0.032915212 -0.07307354 0.014104379 -0.066241354
00000000: 6864 bdbc 4771 91bd 60cb aa3d 4ddc 82bb
00000010: 459c 98bd a18a 85bc 0b2f 0a3d ea78 4cbd
00000020: 5b91 933d ab0d 1bbd f991 6a3d 591d e33c
00000030: ff93 3a3c 1196 953d 531e 9b3d f48c be3c
00000040: ddad 27bd 48c3 5dbd 9d1b c9bc 92de 56bd
00000050: 6c2a 5a3d b2d4 56bd c292 18bb ac59 86bd
00000060: 8fb6 403d c551 43bd 21ae 763d 7bce 6a3d
00000070: 40a3 85bd 4595 353d 11a5 813d a777 3c3c
00000080: a2c6 573d 1327 b5bc a104 ccbc 825d 58bd
00000090: 0d9a 763d f855 8d3d f912 96bd 1d85 70bc
000000a0: c505 d83a fbc1 e93c d132 05bd eee2 a9bd
000000b0: f10c 94bc de5a 4b3c 00e9 9fbd 3b4a 9ebd
000000c0: 6390 413d de6f 09bd 9120 fdbc 5008 a93d
000000d0: 3b9e 18bd f1b1 9e3c 1e3b 1abc 6d59 a63c
000000e0: f5f7 e1bb 2fb7 9cbd 7748 d13c 502b e33c
000000f0: a695 6b3d e36d e53b f559 a83d 9c64 b53d
00000100: 9524 b6bd 0749 b3bc 693d 91bd aa85 33bd
00000110: f8cb 643c 0bdc a93d d4a8 563d ce76 973d
00000120: 909e 7f3d 1575 56bc 2bc3 2bbb d29f bc3c
00000130: 2064 04bd fcd8 063d 8b50 113c f2bd 943c
00000140: 3b0f b23d eb9a d2bc 5996 15bd 659e a93d
00000150: a6e5 5e3d 49fe 39bd 76b9 60bd 493f a53d
00000160: b69a 88bd 26c3 02bd 07bc 963d 681b 75bd
00000170: 52f5 a63c 4d56 a73d a102 ca3c dfcd 9fbd
00000180: 2190 663d 4e75 883d 5d98 09bd 3189 073d
00000190: 825b 633d 9aa3 7abd 9bd5 61bd 4f67 09bd
000001a0: c141 893d 611d 803d 192f 51bc deff 5d3d
000001b0: 1b35 d6bc b98f ee3c 3fd4 45bc 42ac 41bd
000001c0: a067 853d bd3f 1c3d 5dd3 1c3d 8a64 61bd
000001d0: 88d5 29bc 0322 163d f264 3cbd b4ad 873d
000001e0: 1611 673d 7c0f d33c 4945 2d3d 7788 a3bd
000001f0: 1ad2 063d 95a7 95bd 0e16 673c 8ca9 87bd

bn2.weight f4 [128]
0.8750472 1.0907508 0.88769495 0.98236215 0.97595847 0.8647685 1.0221659 0.99803317
1.032507 0.96200204 0.92945707 1.0694895 1.0209013 0.95358956 0.8994358 1.0194271
1.0314373 0.99021417 0.7846483 0.99984205 0.99682504 1.0313342 0.90831673 0.8891767
1.0336676 0.84657156 1.0117092 1.0191284 0.9237702 1.0419328 0.86594003 1.0250344
1.0068148 1.017219 0.8872183 0.8134566 1.1247818 0.9922802 0.99669707 0.9712519
0.88374037 0.95899343 1.0903494 0.95115066 1.0348082 0.8636172 0.9536169 0.9352097
0.98852414 1.0226706 1.0076551 0.98916245 1.0461742 0.999492 1.0229262 1.0704533
0.9907889 1.0115135 1.0554863 0.9733098 0.93301326 0.885719 0.97748554 1.0141343
1.0772883 0.99536955 1.0719366 0.95944744 0.9671717 0.9996022 1.036041 0.932815
1.0848039 0.91128594 1.0018718 0.78027135 0.98062205 0.996808 1.103094 1.0221096
1.0218894 1.0611777 1.006983 0.9354264 0.83131427 0.9810067 0.99983954 1.0336785
1.0095512 1.0749187 0.94799757 0.91574836 0.93765545 0.9168931 1.0330653 0.99176043
0.9658784 0.93776983 1.0182706 0.93427175 0.9923626 0.9770814 1.0265566 0.99397045
0.950236 1.0220854 1.0228884 1.0056925 0.98810244 0.93805295 0.98820543 0.95887643
1.0159377 0.9979497 0.8649747 0.98260623 1.0078887 1.0305758 0.997143 0.96542436
0.90742916 1.0124279 0.9409391 0.989563 0.8268872 1.069203 0.9776411 0.77262557
00000000: 1803 603f b99d 8b3f fa3f 633f 167c 7b3f
00000010: 6ad8 793f 7861 5d3f 55d6 823f 1a7f 7f3f
00000020: 3029 843f c445 763f e6f0 6d3f 08e5 883f
00000030: e5ac 823f 721e 743f 6d41 663f 967c 823f
00000040: 2306 843f ad7e 7d3f b6de 483f a6f5 7f3f
00000050: ed2f 7f3f c202 843f 7287 683f 16a1 633f
00000060: 384f 843f eab8 583f b07f 813f cd72 823f
00000070: 347c 6c3f 0e5e 853f 3fae 5d3f 5434 833f
00000080: 4fdf 803f 3b34 823f bd20 633f b13e 503f
00000090: daf8 8f3f 1306 7e3f 8a27 7f3f f7a3 783f
000000a0: cf3c 623f 9880 753f 9290 8b3f 9c7e 733f
000000b0: 9874 843f 0416 5d3f 3d20 743f e769 6f3f
000000c0: eb0f 7d3f dfe6 823f d8fa 803f c039 7d3f
000000d0: 09e9 853f b5de 7f3f 3fef 823f 9d04 893f
000000e0: 57a4 7d3f 4679 813f 2d1a 873f d52a 793f
000000f0: f5d9 6e3f 7bbe 623f 7e3c 7a3f 27cf 813f
00000100: 95e4 893f 8ad0 7e3f 3835 893f 599e 753f
00000110: 9198 773f eee5 7f3f fe9c 843f f7cc 6e3f
00000120: dbda 8a3f 094a 693f 563d 803f ddbf 473f
00000130: 0c0a 7b3f cf2e 7f3f 2f32 8d3f 7dd4 823f
00000140: 46cd 823f acd4 873f d2e4 803f 1b78 6f3f
00000150: 03d1 543f 4123 7b3f 7cf5 7f3f 944f 843f
00000160: f938 813f f096 893f f8af 723f 7c6e 6a3f
00000170: 300a 703f 82b9 6a3f 7c3b 843f 03e4 7d3f
00000180: cf43 773f af11 703f b156 823f 6f2c 6f3f
00000190: 7a0b 7e3f 0222 7a3f 3566 833f d974 7e3f
000001a0: ab42 733f b2d3 823f 02ee 823f 88ba 803f
000001b0: 48f4 7c3f 3d24 703f 08fb 7c3f ed78 753f
000001c0: 3f0a 823f a279 7f3f fb6e 5d3f 158c 7b3f
000001d0: 7f02 813f e8e9 833f c344 7f3f 0d26 773f
000001e0: 474d 683f 3d97 813f 63e1 703f 0054 7d3f
000001f0: e1ae 533f a5db 883f b046 7a3f caca 453f

bn2.bias f4 [128]
-0.07368301 -0.11061293 -0.0045873015 -0.0075092884 -0.01271832 -0.18763387 -0.14074011 -0.2396271
0.010723299 -0.29343012 -0.009994191 -0.27107707 -0.04474501 -0.14511353 -0.20624588 -0.044398345
-0.13830206 -0.13209568 -0.22224793 -0.23009159 -0.085680254 -0.109807424 -0.2587285 -0.015245766
-0.080466785 -0.23599154 -0.17937714 -0.01958052 -0.07861483 -0.06042522 -0.18119194 -0.22147305
-0.014285188 -0.13152608 -0.13615492 -0.17301747 -0.0695714 -0.21514098 -0.02072429 -0.017604232
-0.104487434 -0.23362102 -0.08069006 -0.060345735 -0.06627165 -0.0062976666 0.009134147 -0.04919158
0.033561226 -0.051313136 0.00861083 -0.1466264 -0.19367915 -0.16746444 -0.25322196 -0.107991986
-0.2177882 -0.02337564 -0.07721843 -0.063499935 -0.22624454 -0.124719046 -0.063076705 -0.11757283
-0.099878855 -0.16242692 -0.12739836 -0.030578148 -0.26809275 -0.016437676 -0.07562691 -0.07133763
-0.10600741 -0.2759548 -0.0038988937 -0.25875834 -0.2868531 -0.05869257 -0.1950647 -0.06279369
-0.13720714 -0.08540946 -0.020795655 -0.1327034 -0.17411429 -0.110654235 -0.28559747 -0.091372125
-0.03192492 -0.042124953 -0.0105503835 -0.03616866 -0.10903085 -0.069163926 -0.2742423 -0.11059498
0.036456306 -0.049331985 -0.059772987 -0.30338985 0.030459015 -0.06185776 -0.10452111 -0.20490462
-0.035663467 -0.18681796 -0.18592934 -0.17591962 -0.10079098 -0.078427725 -0.019654186 -0.26120868
-0.2728109 -0.19481438 0.026928967 -0.06804379 -0.0060409005 -0.11585184 -0.06156854 -0.07846889
-0.07489249 -0.016783379 -0.0040116375 -0.011967873 -0.20966838 -0.18866722 -0.07452729 -0.23599796
00000000: 1ee7 96bd 0889 e2bd 1351 96bb 7a10 f6bb
00000010: 8060 50bc 1823 40be 2d1e 10be ce60 75be
00000020: c7b0 2f3c 793c 96be adbe 23bc 9dca 8abe
00000030: 8b46 37bd a498 14be 1f32 53be 0adb 35bd
00000040: 0e9f 0dbe 1744 07be f694 63be 219d 6bbe
00000050: 2179 afbd b7e2 e0bd 1078 84be 61c9 79bc
00000060: c5cb a4bd c4a7 71be a4ae 37be 5467 a0bc
00000070: d000 a1bd 6f80 77bd 618a 39be d5c9 62be
00000080: 6c0c 6abc c6ae 06be 326c 0bbe 7e2b 31be
00000090: 737b 8ebd eb4d 5cbe fcc5 a9bc c036 90bc
000000a0: 82fd d5bd 593a 6fbe d540 a5bd 172d 77bd
000000b0: 6eb9 87bd a85c cebb 64a7 153c 1c7d 49bd
000000c0: 7f77 093d b92d 52bd 7014 0d3c 3b25 16be
000000d0: d453 46be cc7b 2bbe 4fa6 81be e72a ddbd
000000e0: df03 5fbe 457e bfbc b224 9ebd 410c 82bd
000000f0: a6ac 67be b36c ffbd 5c2e 81bd 06ca f0bd
00000100: 498d ccbd 3e53 26be b774 02be 067f fabc
00000110: 7443 89be 4ea8 86bc 48e2 9abd 7719 92bd
00000120: 6a1a d9bd f349 8dbe 9584 7fbb f97b 84be
00000130: 69de 92be 9f67 70bd 0abf 47be fa99 80bd
00000140: 0780 0cbe 28eb aebd a65b aabc 66e3 07be
00000150: 044b 32be b09e e2bd d539 92be 4f21 bbbd
00000160: b4c3 02bd 378b 2cbd 84db 2cbc 9725 14bd
00000170: 914b dfbd d1a5 8dbd 7d69 8cbe 9f7f e2bd
00000180: 3553 153d 5610 4abd 85d4 74bd ea55 9bbe
00000190: 2f85 f93c 905e 7dbd 2a0f d6bd 84d2 51be
000001a0: db13 12bd 354d 3fbe 4364 3ebe 4624 34be
000001b0: 806b cebd b79e a0bd d101 a1bc 25bd 85be
000001c0: dfad 8bbe 6c7d 47be 239a dc3c 8b5a 8bbd
000001d0: bff2 c5bb bb43 edbd 4b2f 7cbd 4cb4 a0bd
000001e0: 3c61 99bd 4c7d 89bc 0e74 83bb e614 44bc
000001f0: 4fb3 56be fb31 41be c4a1 98bd 73a9 71be

bn2.running_mean f4 [128]
-0.10264182 -0.29929745 -0.17477903 0.29391253 -0.33219665 0.09478269 0.08615482 0.05099155
0.33916694 0.80346274 0.23159352 -0.8024157 -0.9309088 -0.14089769 -0.28587276 -0.23348439
-0.53320706 0.030383911 -0.43751994 -1.1253746 0.15251622 -0.26068306 -0.41129684 -0.21060063
-0.8944344 -0.47690862 -0.43731055 -0.31317317 -0.12368003 -0.1919819 -0.14848392 0.04180383
-0.59573025 0.32691312 -0.50332355 -0.533474 0.6396496 -0.66977865 0.39955288 -0.34256476
-0.5633387 0.59959424 -0.09574886 -0.29030234 -0.99851793 -0.18392363 -0.44088763 -0.31913668
0.045175545 -0.24826834 -0.33779803 0.30977714 -0.0076637124 -0.8578067 -1.4065151 -1.1814119
-1.137558 -0.13992405 -0.8691999 0.14651959 -0.14382453 0.07699793 -0.452262 -0.74560493
-0.25086764 -0.086952455 -1.0828458 -0.6029366 0.6798219 -0.6967607 0.03866432 -0.17870533
0.060375426 -0.46346244 -0.8206332 -0.28364488 -0.06170486 -0.3323454 -0.03759623 -0.27843532
-0.36066902 -0.83104336 -1.0217155 0.015409245 -0.023697432 0.081500664 -1.3989849 0.14967535
-0.90514624 -0.92230964 -0.32453853 -0.44835925 0.12195885 -0.68346155 -0.9394547 -0.26450643
0.020737737 -0.73535866 -0.2819537 1.0995557 -0.26555902 -0.8688543 -0.043471314 -0.7331413
-0.42235902 -0.54841554 -0.638333 -0.28198257 -0.3554378 -0.47461474 -0.60767657 0.40268767
-1.0033041 0.13998084 -0.5584894 -0.46481618 0.19537613 -0.78790635 -0.8658148 -0.19135311
-0.11901716 -0.32168046 -0.2138439 -1.148468 -0.75834626 -0.91760135 -0.8618071 -0.029942883
00000000: e035 d2bd 843d 99be 46f9 32be b47b 963e
00000010: ae15 aabe 6d1d c23d f071 b03d 84dc 503d
00000020: 4aa7 ad3e bcaf 4d3f da26 6d3e 1e6b 4dbf
00000030: 0a50 6ebf 7c47 10be ea5d 92be 8816 6fbe
00000040: 4280 08bf aee7 f83c 9d02 e0be 460c 90bf
00000050: 362d 1c3e 4078 85be 8095 d2be b1a7 57be
00000060: a7f9 64bf 5e2d f4be 2be7 dfbe 3c58 a0be
00000070: f54b fdbd e796 44be 2b0c 18be 7e3a 2b3d
00000080: c781 18bf 2861 a73e d0d9 00bf c191 08bf
00000090: 14c0 233f 9d76 2bbf 3292 cc3e a664 afbe
000000a0: f736 10bf 027f 193f fa17 c4bd 82a2 94be
000000b0: df9e 7fbf 7a56 3cbe 06bc e1be e265 a3be
000000c0: fe09 393d 0e3a 7ebe ddf3 acbe 1c9b 9e3e
000000d0: e11f fbbb 3899 5bbf b008 b4bf 8138 97bf
000000e0: 809b 91bf 4048 0fbe e283 5ebf 3b09 163e
000000f0: bd46 13be 17b1 9d3d e38e e7be f7df 3ebf
00000100: b971 80be 2114 b2bd b19a 8abf 0e5a 1abf
00000110: cf08 2e3f e95e 32bf 7a5e 1e3d 88fe 36be
00000120: 394c 773d f34a edbe 0415 52bf e739 91be
00000130: 3cbe 7cbd 2d29 aabe 81fe 19bd 138f 8ebe
00000140: 9ca9 b8be 42bf 54bf 93c7 82bf 0f77 7c3c
00000150: 1e21 c2bc d2e9 a63d f011 b3bf 7f44 193e
00000160: aab7 67bf 7c1c 6cbf ea29 a6be 588f e5be
00000170: 90c5 f93d 56f7 2ebf 1a80 70bf 636d 87be
00000180: 30e2 a93c 7740 3cbf 3c5c 90be 3ebe 8c3f
00000190: 5af7 87be 3c6d 5ebf fa0e 32bd 26af 3bbf
000001a0: 713f d8be f664 0cbf cb69 23bf 0560 90be
000001b0: f1fb b5be b400 f3be b190 1bbf 142d ce3e
000001c0: 456c 80bf 2357 0f3e 29f9 0ebf 63fc edbe
000001d0: ae10 483e 3bb4 49bf 0aa6 5dbf 12f2 43be
000001e0: 45bf f3bd 4db3 a4be e5f9 5abe 0001 93bf
000001f0: fb22 42bf ece7 6abf 649f 5cbf c74a f5bc

bn2.running_var f4 [128]
1.1885718 1.9920151 1.3859701 1.0315809 1.4804963 0.9788656 1.7404101 0.85402495
0.7841969 0.83772224 0.8153781 1.4192276 2.3143206 0.8827456 1.28044 1.1035099
1.4046706 1.511718 1.1271224 1.3125707 1.234222 1.5636457 0.6834209 1.4488608
4.440456 1.1228315 1.294579 1.5937312 1.3445596 1.3413314 1.5135801 1.9550991
0.8463631 0.95533323 2.6198997 3.4160805 1.0218247 1.4087002 1.3295934 1.108688
2.609864 1.2245628 1.9919438 1.4952698 2.5791342 1.0514804 0.9117679 0.9957906
0.7840027 1.3007864 1.336414 0.75626117 0.94601345 1.0916036 1.2466234 2.1201074
1.4032347 1.1084642 1.505037 1.4021236 0.7103706 1.1112368 1.2160572 2.4245949
1.7564238 1.4259784 1.7940309 1.5527774 0.9789785 2.5966794 1.2221026 1.1435975
1.2848243 1.3278222 0.9504354 1.2303498 1.4810537 1.7219963 1.0069753 1.5098853
1.8216959 1.5963999 1.6957655 1.3819813 0.4205561 0.7362096 1.5133923 1.5064373
1.875133 2.507904 1.608058 0.6879178 0.8433022 1.4510733 2.543239 1.2893846
0.8361964 3.7035322 1.7762749 0.8220019 1.6208758 1.5790292 1.6289289 0.8740143
1.7106141 1.2674744 1.4672124 1.718225 1.0740157 2.4217129 1.1069885 0.72483253
1.1684558 0.7575917 1.5786012 1.6696712 1.0978566 1.8991371 2.875909 1.5725386
1.436857 1.7693794 1.1782275 2.5415301 0.9817811 1.511497 1.2576634 0.7245951
00000000: 1f23 983f 5afa fe3f 7867 b13f d80a 843f
00000010: e780 bd3f f096 7a3f c2c5 de3f 61a1 5a3f
00000020: 21c1 483f f774 563f 9fbc 503f 40a9 b53f
00000030: d41d 1440 9efb 613f 75e5 a33f d03f 8d3f
00000040: 3fcc b33f fa7f c13f 8c45 903f 5102 a83f
00000050: fdfa 9d3f 8b25 c83f acf4 2e3f 4574 b93f
00000060: 3718 8e40 f1b8 8f3f c4b4 a53f 62ff cb3f
00000070: 871a ac3f bfb0 ab3f febc c13f b040 fa3f
00000080: 41ab 583f b890 743f 70ac 2740 10a1 5a40
00000090: 27cb 823f 4a50 b43f 1e30 aa3f 7de9 8d3f
000000a0: 0308 2740 79be 9c3f 04f8 fe3f 0065 bf3f
000000b0: 8910 2540 e996 863f 9f69 693f 22ec 7e3f
000000c0: 67b4 483f 2b80 a63f 9d0f ab3f 559a 413f
000000d0: f02d 723f abb9 8b3f 5b91 9f3f d7af 0740
000000e0: 329d b33f 28e2 8d3f 0da5 c03f c978 b33f
000000f0: d9da 353f 023d 8e3f c3a7 9b3f 902c 1b40
00000100: 7fd2 e03f 7686 b63f cea2 e53f 69c1 c63f
00000110: 569e 7a3f ff2f 2640 dc6d 9c3f 6761 923f
00000120: 1f75 a43f 14f6 a93f bc4f 733f 1a7c 9d3f
00000130: 2b93 bd3f 606a dc3f 91e4 803f ec43 c13f
00000140: 552d e93f d556 cc3f d80e d93f c3e4 b03f
00000150: 2153 d73e 3b78 3c3f d7b6 c13f f0d2 c03f
00000160: 5c04 f03f 8081 2040 d8d4 cd3f 621b 303f
00000170: a7e2 573f c5bc b93f 6ec4 2240 8e0a a53f
00000180: f810 563f ac06 6d40 fa5c e33f b76e 523f
00000190: dc78 cf3f a11d ca3f be80 d03f 67bf 5f3f
000001a0: 67f5 da3f 9a3c a23f 9ecd bb3f ccee db3f
000001b0: 5979 893f 58fd 1a40 cdb1 8d3f a08e 393f
000001c0: f68f 953f 88f1 413f 9b0f ca3f c9b7 d53f
000001d0: 9186 8c3f ed16 f33f e50e 3840 f248 c93f
000001e0: eeea b73f 067b e23f 29d0 963f 6ea8 2240
000001f0: 0256 7b3f bc78 c13f 1dfb a03f 117f 393f

fc3.weight f4 [2, 128]
-0.07791068 -0.041297894 0.010510473 0.049668245 0.037645295 -0.06531139 -0.09857087 -0.020813486
0.03542026 -0.042736698 0.06883749 -0.05403664 0.047771066 -0.031280674 -0.025548773 0.06667505
-0.030432763 -0.041919965 -0.031102333 -0.040504288 0.0009985492 0.019635396 -0.031845495 0.055647343
-0.017026465 0.004787026 -0.025007723 0.00874404 0.039602898 0.011491215 -0.03071029 -0.025599938
0.021239275 -0.051384646 0.042237703 -0.0068593957 0.011040276 -0.078945056 0.00825045 -0.0016225051
0.065946795 -0.055629697 -0.00729921 -0.022661908 0.017022822 0.0060543064 0.08609382 -0.008407207
0.026974251 0.106413774 0.093570866 0.012828021 -0.07294313 -0.051813897 0.0036094193 0.112261616
-0.07704781 0.0017651307 0.09151309 -0.012892646 -0.043945346 0.004518291 0.033223495 0.03543432
-0.055397723 -0.027386503 -0.0029734815 0.03981798 -0.048371177 -0.03384237 -0.07970983 -0.034780037
-0.09225123 0.050352834 0.009407664 0.051247813 -0.11200358 0.0035549325 0.114602074 0.091449305
0.019152053 -0.006544692 0.07729695 -0.05831016 0.010249778 0.051581167 -0.065167755 -0.031177297
-0.02619857 0.0047913375 0.06921855 0.033109438 0.033337936 0.014917098 -0.07410874 -0.024653126
0.05898297 0.046916306 -0.025413256 -0.028353803 0.11148805 0.051914487 -0.041541148 -0.07455477
0.0074891094 0.1004424 -0.08366451 -0.044445448 0.023978762 -0.036064226 0.063287124 0.081569925
0.011183373 -0.057916835 0.011151644 0.077614084 0.04709189 0.015432842 0.0038229614 0.019421473
-0.04486624 0.027828597 0.03223285 0.02194629 0.038113095 -0.013997601 0.085397385 0.0040530916
-0.065395005 0.03088284 -0.023120528 0.006564311 -0.001077476 -0.007636204 -0.033452176 0.054422885
-0.024991866 0.06879939 0.027306518 0.07536608 -0.037424553 -0.0028743118 -0.0110885 -0.04747156
0.022521853 -0.013365532 -0.0378896 0.026753264 0.06581795 -0.07617988 0.014194118 0.01728624
-0.07740832 -0.012475122 0.029861487 -0.07333776 0.023940356 -0.061336048 -0.04778129 0.06137942
-0.015616721 0.06570505 -0.007260126 -0.030884577 -0.08108297 -0.041091297 -0.0433683 -0.04709059
0.03434078 0.025064666 0.06495696 -0.06803913 -0.05406063 -0.03771896 0.017307298 -0.055534907
-0.030202493 0.053150255 0.03168476 0.08869527 0.034705628 0.056440096 0.13696824 0.004633218
0.03318802 -0.06913112 -0.0070632165 -0.06265141 -0.010743394 -0.06442195 -0.037013233 -0.041065376
-0.022757778 0.011514974 -0.07238642 -0.00840479 0.05946645 -0.10344494 0.011292772 -0.07317182
-0.0020205108 0.071378976 -0.0772444 0.078392915 0.008799214 -0.06384365 -0.004707849 -0.03867775
-0.085969806 -0.074740596 -0.05018572 -0.0043529063 0.029615585 -0.008004672 0.08471815 0.037901234
-0.038551368 -0.050417095 0.026276069 0.0063871644 0.053052947 0.0040003615 0.029175298 0.041966155
0.007344503 0.012404882 -0.09980013 0.059886757 0.043750454 0.012987586 0.0056078294 0.033641253
-0.042506285 -0.013414624 -0.005908261 0.0026730085 -0.053906493 -0.08318126 0.034235366 -0.023289504
0.06367406 0.057661373 -0.0015652105 0.025674652 -0.05679267 -0.053376094 -0.051234122 -0.0429522
-0.09878711 -0.05109914 -0.041649472 -0.017851222 0.06861747 0.059031434 0.020262642 -0.031035772
00000000: a28f 9fbd fb27 29bd 1e34 2c3c ee70 4b3d
00000010: f431 1a3d fac1 85bd 86df c9bd 0b81 aabc
00000020: d614 113d ad0c 2fbd acfa 8c3d 8655 5dbd
00000030: 98ab 433d 2a20 00bd a94b d1bc ee8c 883d
00000040: 214e f9bc 45b4 2bbd 52ca febc d3e7 25bd
00000050: c0e1 823a 69da a03c 6c70 02bd 78ee 633d
00000060: 167b 8bbc 7cdc 9c3b ffdc ccbc 2943 0f3c
00000070: a636 223d a645 3c3c 2594 fbbc f6b6 d1bc
00000080: fdfd ad3c b578 52bd 7101 2d3d c8c4 e0bb
00000090: 46e2 343c f2ad a1bd e52c 073c 3daa d4ba
000000a0: 1d0f 873d f7db 63bd 362e efbb 77a5 b9bc
000000b0: 7273 8b3c 3463 c63b f551 b03d 62be 09bc
000000c0: 1bf9 dc3c 77ef d93d 15a2 bf3d 9f2c 523c
000000d0: 3563 95bd cf3a 54bd 028c 6c3b 6be9 e53d
000000e0: 3ecb 9dbd f55b e73a 376b bb3d ad3b 53bc
000000f0: 0900 34bd 2c0e 943b 5c15 083d 9423 113d
00000100: b9e8 62bd a959 e0bc bede 42bb 2e18 233d
00000110: db20 46bd 4c9e 0abd e83e a3bd 8375 0ebd
00000120: 36ee bcbd c63e 4e3d 9a22 1a3c 3ae9 513d
00000130: 2262 e5bd dff9 683b 7eb4 ea3d c649 bb3d
00000140: c4e4 9c3c db74 d6bb dd4d 9e3d a2d6 6ebd
00000150: afee 273c c646 533d ac76 85bd 8867 ffbc
00000160: 629e d6bc a700 9d3b 75c2 8d3d c39d 073d
00000170: 5c8d 083d d866 743c 53c6 97bd 5af5 c9bc
00000180: 2098 713d 502b 403d 762f d0bc 3c46 e8bc
00000190: d953 e43d 49a4 543d 0d27 2abd 2cb0 98bd
000001a0: 3467 f53b bfb4 cd3d 4c58 abbd 6e0c 36bd
000001b0: 1c6f c43c 15b8 13bd ae9c 813d 220e a73d
000001c0: 773a 373c 343a 6dbd 63b5 363c 22f4 9e3d
000001d0: 6de3 403d 08da 7c3c a68a 7a3b c819 9f3c
000001e0: aac5 37bd ccf8 e33c 9806 043d b5c8 b33c
000001f0: 7a1c 1c3d 3256 65bc d3e4 ae3d cccf 843b
00000200: d1ed 85bd 02fe fc3c 4367 bdbc 6f19 d73b
00000210: 183a 8dba 1f39 fabb 2605 09bd 88ea 5e3d
00000220: bebb ccbc b2e6 8c3d ebb1 df3c 8859 9a3d
00000230: 7d4a 19bd f35e 3cbb 8aac 35bc 8a71 42bd
00000240: c07f b83c 1bfb 5abc 2032 1bbd a929 db3c
00000250: 90cb 863d 3204 9cbd 728e 683c df9b 8d3c
00000260: 4188 9ebd 7464 4cbc 14a0 f43c 1c32 96bd
00000270: 911e c43c 823b 7bbd 50b6 43bd fd68 7b3d
00000280: 46dd 7fbc 5f90 863d 5ae6 edbb a701 fdbc
00000290: d40e a6bd 594f 28bd f5a2 31bd 10e2 40bd
000002a0: eba8 0c3d 6a54 cd3c 2808 853d 1958 8bbd
000002b0: ae6e 5dbd 327f 1abd 09c8 8d3c 9278 63bd
000002c0: 386b f7bc 15b4 593d e1c7 013d dea5 b53d
000002d0: 7d27 0e3d bb2d 673d 6741 0c3e 40d2 973b
000002e0: 29f0 073d 9e94 8dbd 8e72 e7bb 624f 80bd
000002f0: 0f05 30bc a8ef 83bd 309b 17bd 2b34 28bd
00000300: 856e babc 4da9 3c3c 553f 94bd 3fb4 09bc
00000310: 1893 733d f1da d3bd 5205 393c 1bdb 95bd
00000320: 8c6a 04bb 242f 923d 5032 9ebd 778c a03d
00000330: 942a 103c 76c0 82bd 4d44 9abb 8f6c 1ebd
00000340: f010 b0bd 9911 99bd 8b8f 4dbd d3a2 8ebb
00000350: 629c f23c 0726 03bc b680 ad3d 533e 1b3d
00000360: 0ae8 1dbd 2882 4ebd e940 d73c 6b4b d13b
00000370: 0c4e 593d 7715 833b 0901 ef3c b4e4 2b3d
00000380: 28aa f03b d93d 4b3c 0364 ccbd d14b 753d
00000390: ad33 333d e2c9 543c e2c1 b73b 69cb 093d
000003a0: 121b 2ebd 03c9 5bbc 169a c1bb a42d 2f3b
000003b0: 0ecd 5cbd f05a aabd 623a 0c3d a1c9 bebc
000003c0: 8c67 823d 552e 6c3d c027 cdba a653 d23c
000003d0: 6e9f 68bd e4a0 5abd dfda 51bd a5ee 2fbd
000003e0: e550 cabd 554d 51bd a398 2abd ba3c 92bc
000003f0: 5187 8c3d f2ca 713d d7fd a53c bb3e febc

fc3.bias f4 [2]
0.10006053 -0.044724002
00000000: 89ec cc3d 8430 37bd
